…
in: ziffer_raw/4_1.jpg  -  out: ziffer_resize/4_1.jpg
in: ziffer_raw/4_1_20220211.jpg  -  out: ziffer_resize/4_1_20220211.jpg
in: ziffer_raw/7_7_nt6_20210625-172323.jpg  -  out: ziffer_resize/7_7_nt6_20210625-172323.jpg
in: ziffer_raw/NaN_20200911-170139_ROI5.jpg  -  out: ziffer_resize/NaN_20200911-170139_ROI5.jpg
dig-s0
a_output_actual/dig-s0
File Exists
Model: "sequential"
_________________________________________________________________
 Layer (type)                Output Shape              Param #   
=================================================================
 batch_normalization (BatchN  (None, 32, 20, 3)        12        
 ormalization)                                                   
                                                                 
 conv2d (Conv2D)             (None, 32, 20, 32)        896       
                                                                 
 max_pooling2d (MaxPooling2D  (None, 16, 10, 32)       0         
 )                                                               
                                                                 
 conv2d_1 (Conv2D)           (None, 16, 10, 64)        18496     
                                                                 
 max_pooling2d_1 (MaxPooling  (None, 8, 5, 64)         0         
 2D)                                                             
                                                                 
 conv2d_2 (Conv2D)           (None, 8, 5, 64)          36928     
                                                                 
 max_pooling2d_2 (MaxPooling  (None, 4, 2, 64)         0         
 2D)                                                             
                                                                 
 flatten (Flatten)           (None, 512)               0         
                                                                 
 dense (Dense)               (None, 512)               262656    
                                                                 
 dense_1 (Dense)             (None, 11)                5643      
                                                                 
=================================================================
Total params: 324,631
Trainable params: 324,625
Non-trainable params: 6
_________________________________________________________________
1158
(1158, 32, 20, 3)
(1158, 11)
(926, 32, 20, 3)
(232, 32, 20, 3)
Epoch 1/100
  1/232 [..............................] -
…
racy: 1.0000232/232 [==============================] - 2s 7ms/step - loss: 2.0490e-06 - accuracy: 1.0000 - val_loss: 2.1581e-08 - val_accuracy: 1.0000
dig-s0
File Exists
ziffer_resize/NaN_0_ht6_20210628-182853.jpg -1 9
dig-s1
a_output_actual/dig-s1
File Exists
Model: "sequential_1"
_________________________________________________________________
 Layer (type)                Output Shape              Param #   
=================================================================
 batch_normalization_1 (Batc  (None, 32, 20, 3)        12        
 hNormalization)                                                 
                                                                 
 conv2d_3 (Conv2D)           (None, 32, 20, 32)        896       
                                                                 
 max_pooling2d_3 (MaxPooling  (None, 16, 10, 32)       0         
 2D)                                                             
                                                                 
 conv2d_4 (Conv2D)           (None, 16, 10, 64)        18496     
                                                                 
 max_pooling2d_4 (MaxPooling  (None, 8, 5, 64)         0         
 2D)                                                             
                                                                 
 conv2d_5 (Conv2D)           (None, 8, 5, 64)          36928     
                                                                 
 max_pooling2d_5 (MaxPooling  (None, 4, 2, 64)         0         
 2D)                                                             
                                                                 
 flatten_1 (Flatten)         (None, 512)               0         
                                                                 
 dense_2 (Dense)             (None, 256)               131328    
                                                                 
 dense_3 (Dense)             (None, 11)                2827      
                                                                 
=================================================================
Total params: 190,487
Trainable params: 190,481
Non-trainable params: 6
_________________________________________________________________
1158
(1158, 32, 20, 3)
(1158, 11)
(926, 32, 20, 3)
(232, 32, 20, 3)
Epoch 1/100
  1/232 [..............................] -
…
20220319	1158	97	1.6641484762658365e-05	3.5915451235268847e-07
20220319	1158	98	1.0657855455065146e-05	0.0009674974135123193
20220319	1158	99	3.338433089083992e-06	5.062295531388372e-05
20220319	1158	100	0.007547399494796991	1.49011496475282e-08
dig-s1
File Exists
ziffer_resize/0_0_nt1_20210626-090405.jpg 0 4
dig-s2
a_output_actual/dig-s2
File Exists
Model: "sequential_2"
_________________________________________________________________
 Layer (type)                Output Shape              Param #   
=================================================================
 batch_normalization_2 (Batc  (None, 32, 20, 3)        12        
 hNormalization)                                                 
                                                                 
 conv2d_6 (Conv2D)           (None, 32, 20, 32)        896       
                                                                 
 max_pooling2d_6 (MaxPooling  (None, 16, 10, 32)       0         
 2D)                                                             
                                                                 
 conv2d_7 (Conv2D)           (None, 16, 10, 32)        9248      
                                                                 
 max_pooling2d_7 (MaxPooling  (None, 8, 5, 32)         0         
 2D)                                                             
                                                                 
 conv2d_8 (Conv2D)           (None, 8, 5, 32)          9248      
                                                                 
 max_pooling2d_8 (MaxPooling  (None, 4, 2, 32)         0         
 2D)                                                             
                                                                 
 flatten_2 (Flatten)         (None, 256)               0         
                                                                 
 dense_4 (Dense)             (None, 256)               65792     
                                                                 
 dense_5 (Dense)             (None, 11)                2827      
                                                                 
=================================================================
Total params: 88,023
Trainable params: 88,017
Non-trainable params: 6
_________________________________________________________________
1158
(1158, 32, 20, 3)
(1158, 11)
(926, 32, 20, 3)
(232, 32, 20, 3)
Epoch 1/100
  1/232 [..............................] - E
…
20220319	1158	96	5.326303380570607e-07	0.15485888719558716
20220319	1158	97	9.84245434665354e-06	0.0002739771152846515
20220319	1158	98	0.005808193236589432	0.01488384697586298
20220319	1158	99	0.0005506394663825631	0.0019521283684298396
20220319	1158	100	0.0006193994195200503	0.26257020235061646
dig-s2
File Exists
ziffer_resize/0_0_nt1_20210626-090405.jpg 0 -1
dig-s3
a_output_actual/dig-s3
File Exists
Model: "sequential_3"
_________________________________________________________________
 Layer (type)                Output Shape              Param #   
=================================================================
 batch_normalization_3 (Batc  (None, 32, 20, 3)        12        
 hNormalization)                                                 
                                                                 
 conv2d_9 (Conv2D)           (None, 32, 20, 32)        896       
                                                                 
 max_pooling2d_9 (MaxPooling  (None, 16, 10, 32)       0         
 2D)                                                             
                                                                 
 conv2d_10 (Conv2D)          (None, 16, 10, 32)        9248      
                                                                 
 max_pooling2d_10 (MaxPoolin  (None, 8, 5, 32)         0         
 g2D)                                                            
                                                                 
 conv2d_11 (Conv2D)          (None, 8, 5, 32)          9248      
                                                                 
 max_pooling2d_11 (MaxPoolin  (None, 4, 2, 32)         0         
 g2D)                                                            
                                                                 
 flatten_3 (Flatten)         (None, 256)               0         
                                                                 
 dense_6 (Dense)             (None, 128)               32896     
                                                                 
 dense_7 (Dense)             (None, 11)                1419      
                                                                 
=================================================================
Total params: 53,719
Trainable params: 53,713
Non-trainable params: 6
_________________________________________________________________
1158
(1158, 32, 20, 3)
(1158, 11)
(926, 32, 20, 3)
(232, 32, 20, 3)
Epoch 1/100
  1/232 [..............................] - E
…
